faces_embeddings_done_4classes_with_live_model.npz (npz, 680254 bytes, 1 tensors)

arr_0 f4 [358, 512]
0	0x3d7bb585	0.061452407
1	0xbccb3d00	-0.02480936
2	0x3d4fa360	0.050692916
3	0xbc0779c7	-0.00826878
4	0xbd0c7e8e	-0.03430038
5	0x3d42af9d	0.04753076
6	0x3c02479a	0.007951641
7	0xbe00699f	-0.12540291
8	0x3c323fef	0.010879501
9	0x3d391a1f	0.045190927
10	0x3d72d5b4	0.059285834
11	0xbcd3c5b0	-0.0258511
12	0x3d4aa2e2	0.049471743
13	0x3cad126e	0.021126952
14	0xbcc70ab3	-0.024297094
15	0x3c8db78c	0.017299436
16	0x3d64b3fb	0.055835705
17	0x3cdf49f7	0.027256949
18	0x3d5d6cf3	0.05405898
19	0x3d4def98	0.050277323
20	0xbaa6af8c	-0.0012717112
21	0xbdadbcb1	-0.08483256
22	0x3d901590	0.07035363
23	0xbd70f521	-0.058827523
24	0xbd278ed9	-0.040907715
25	0x3b71f3ed	0.0036919073
26	0xbc8ff271	-0.01757166
27	0xbda9bef7	-0.08288377
28	0xbd271f23	-0.04080118
29	0xbd43c3f3	-0.047794294
30	0xbc8c1566	-0.017100047
31	0x3d613065	0.054977793
32	0xbdac7d0c	-0.08422288
33	0x3d700e56	0.05860742
34	0xbd09e7ad	-0.03366821
35	0xbc8aad67	-0.016928388
36	0x3d2695a1	0.04067004
37	0xbcf59261	-0.029977025
38	0xbc8619ea	-0.016369779
39	0x3cdfb118	0.027306125
40	0xbd95ee2f	-0.073208205
41	0x3c1f553b	0.00972491
42	0xbd7fbadd	-0.062434066
43	0x3d761e09	0.060087238
44	0x3cad8e40	0.021185994
45	0x3cd3d184	0.02585674
46	0x3d86ac1d	0.06575797
47	0x3c07d1a0	0.008289725
48	0x3cc6c6a8	0.024264649
49	0xbc337582	-0.010953309
50	0xbbc5f468	-0.0060410984
51	0x3cf02766	0.029315662
52	0xbc8dcff8	-0.017311081
53	0x3dc1b5a7	0.094584756
54	0xbd42d3a5	-0.04756512
55	0xbd92979d	-0.07157824
56	0x3d8eedf8	0.06978983
57	0x3c3ec57c	0.011643764
58	0xbd51b20d	-0.051195193
59	0x3d64897a	0.05579517
60	0x3d583425	0.052784104
61	0xbd5c2b27	-0.05375209
62	0xbc5ea4d3	-0.013589102
63	0xbb8bef12	-0.0042704428
64	0x3cb031aa	0.021508057
65	0x3bb12935	0.0054065236
66	0x3b8bd950	0.004267849
67	0xbc941f75	-0.018081406
68	0xbcbea945	-0.023274073
69	0x3c56e86e	0.013116939
70	0xbbb8751c	-0.005629195
71	0x3c29f0f1	0.010372386
72	0x3d2acd25	0.041699547
73	0x3d02b6e1	0.03191269
74	0xbd345ef6	-0.044035874
75	0xbcb3eabc	-0.021962516
76	0xbd786626	-0.06064429
77	0x3ce16a67	0.027516557
78	0xbcd06f2c	-0.025443636
79	0xbcd854d5	-0.026407639
80	0xbd83c237	-0.06433528
81	0xbd0666f8	-0.032813042
82	0xbd3aa903	-0.04557134
83	0xbc90b378	-0.017663702
84	0xbd3dfc5b	-0.046383243
85	0x3d66672e	0.056250744
86	0xbbbc3ae9	-0.0057443273
87	0x3d2a1376	0.041522466
88	0xbcf44b6e	-0.029821124
89	0x3dbeb674	0.09312144
90	0xb934568d	-0.0001719838
91	0xbd08d153	-0.033402752
92	0xbda50e59	-0.08059377
93	0x3c664d0f	0.014056458
94	0x3cfd868a	0.030947942
95	0xbbf71206	-0.0075399904
96	0x3d2a9384	0.041644588
97	0x3d822140	0.06353998
98	0xbd26ddc1	-0.040738825
99	0xbc29eec4	-0.010371868
100	0x3ca9f6ab	0.020747503
101	0xbd3167be	-0.043311827
102	0xbd4ee2fa	-0.05050943
103	0xbd6fd32c	-0.058551
104	0x3cba3808	0.022731796
105	0xbd2903ac	-0.041263267
106	0xbcd99c70	-0.026563853
107	0xbcd7da4c	-0.02634921
108	0xbdf9c05d	-0.121948935
109	0xbd2693ce	-0.0406683
110	0x3c56b5d1	0.013104872
111	0xbd8283e3	-0.06372812
112	0xbce910c0	-0.02845037
113	0xbca93df1	-0.020659419
114	0xbcb2ccfa	-0.021826256
115	0x3d03cc76	0.03217741
116	0x3c38c066	0.01127634
117	0xbd6cb016	-0.057785116
118	0x3d339fda	0.04385362
119	0x3d100c07	0.03516772
120	0x3cd4d07d	0.025978321
121	0xbbfccc64	-0.007714795
122	0x3cde4a07	0.027134908
123	0x3d216575	0.039403398
124	0x3ccf1a55	0.02528111
125	0xbd8befc3	-0.0683284
126	0xbd50ee9f	-0.051008817
127	0x3d3fc940	0.046822786
128	0xba708fbc	-0.00091766915
129	0xbcd9e02b	-0.02659615
130	0xbcef67f3	-0.029224372
131	0x3c9cd161	0.019142808
132	0xbd33ac26	-0.043865345
133	0x3c5258cd	0.012838555
134	0x3adf5356	0.0017038386
135	0xbc0f4605	-0.008744721
136	0xbd8bbe7b	-0.06823441
137	0xbcf96292	-0.03044251
138	0xbcdecf8a	-0.027198572
139	0x3cc61f70	0.024184912
140	0x3c1f06fe	0.009706257
141	0x3c5b5fe7	0.013389564
142	0xbb5d9b98	-0.0033814665
143	0xb8e3f47b	-0.000108697415
144	0xbd0ed8a0	-0.03487456
145	0xbc12d8de	-0.008962838
146	0x3da1cfbd	0.07900951
147	0x3ced711f	0.028984604
148	0x3cd5c9e0	0.026097238
149	0x3d48fc1f	0.049068566
150	0x3d2392c4	0.03993489
151	0x3d736f32	0.059432216
152	0xbca2fc83	-0.019895798
153	0x3cffe90c	0.031239055
154	0xbb9a5ed6	-0.0047110124
155	0x3d5f1845	0.054466505
156	0xbc808ff1	-0.015693637
157	0x3d93361f	0.07188057
158	0x3d9b57f5	0.07585136
159	0xbd5f10dd	-0.05445944
160	0x3c2e9f20	0.010658056
161	0x3d165584	0.036702648
162	0xbd70f55e	-0.05882775
163	0x3cf3bb69	0.02975245
164	0x3bbc7645	0.0057514035
165	0xbbdb9aa8	-0.006701786
166	0xbc29f9d7	-0.010374508
167	0xbd396ba0	-0.045268655
168	0x3db74cf7	0.08950227
169	0x3c5646d5	0.013078411
170	0x3c933a76	0.017972212
171	0x3c133b51	0.00898631
172	0x3cb7891e	0.02240425
173	0xbd82923b	-0.063755475
174	0x3b7357c1	0.0037131163
175	0xbd65768a	-0.05602125
176	0xbd94ac2a	-0.072594
177	0xbb63ff21	-0.003478952
178	0x3d055029	0.03254715
179	0xbc9372be	-0.01799905
180	0xbcfae7c6	-0.030628096
181	0x3d90d6e0	0.07072234
182	0xbd3753ea	-0.04475776
183	0xbb6ee2bd	-0.0036451065
184	0xbc293f9c	-0.010330107
185	0x3d203a57	0.039118137
186	0x3d503e79	0.05084083
187	0x3cbfdd81	0.023421051
188	0xbd802165	-0.062563695
189	0xbd4d8ccb	-0.0501831
190	0xbcc6131e	-0.024179038
191	0xbb292a38	-0.0025812518
192	0x3bf40c2f	0.0074477415
193	0x3d2006df	0.039069053
194	0xbd87ad47	-0.06624847
195	0xbdb4a70f	-0.088209264
196	0xbd83c04d	-0.06433163
197	0xbd64e074	-0.055878118
198	0x3d44403f	0.047912832
199	0x3cef9024	0.029243536
200	0x3d97ab19	0.07405681
201	0x3aa26e84	0.0012392555
202	0xbdb50681	-0.08839131
203	0x3dc15ab3	0.09441128
204	0xbc552956	-0.013010344
205	0x3cefe9e1	0.029286327
206	0xbd48a60f	-0.04898649
207	0xbd5f5782	-0.054526813
208	0xbbb5172a	-0.005526443
209	0xbc5437f0	-0.01295279
210	0xbdbf41c0	-0.09338713
211	0xbd58eec5	-0.052962083
212	0x3b4b61c5	0.0031033617
213	0xbcf99d59	-0.030470537
214	0x3c214e4e	0.009845329
215	0xbc9c7331	-0.019097896
216	0x3dbf2de9	0.093349285
217	0x3cb87842	0.02251828
218	0x3dec654e	0.1154276
219	0x3dfe7ae8	0.12425786
220	0x3d12fa48	0.035883218
221	0xbd857907	-0.06517225
222	0x3d58a285	0.052889366
223	0xbdc778d0	-0.0973984
224	0x3d4229b8	0.047403067
225	0x3d0dcde8	0.034620196
226	0xbc1c69c0	-0.009546697
227	0x3d3d2584	0.046178356
228	0xbcf0814f	-0.029358534
229	0x3d57e435	0.05270787
230	0x3d8c6d9b	0.06856843
231	0x3d66fea3	0.056395184
232	0x3c8f7d4f	0.017515806
233	0x3d4fafc7	0.050704744
234	0x3d863b8e	0.06554328
235	0xbc164f53	-0.009174186
236	0x3cab5931	0.020916553
237	0xbdc72036	-0.097229406
238	0x3d8dfc85	0.0693293
239	0x3c203634	0.009778548
240	0x3d116bda	0.035503246
241	0x3ca87e12	0.020567928
242	0x3c604b60	0.013689846
243	0x3d3e37c4	0.0464399
244	0xbccecbb0	-0.02524361
245	0xbd5d6e8b	-0.0540605
246	0xbd91e069	-0.07122881
247	0xbc2bfdd5	-0.01049753
248	0x3d10e342	0.03537298
249	0x3a1c7894	0.0005968895
250	0x3d1768ba	0.03696511
251	0xbd2c25c8	-0.04202822
252	0x3d7c4a5e	0.06159436
253	0xbc88cd0e	-0.01669934
254	0xbd1ce8a3	-0.038307797
255	0x3c9f2732	0.01942787
